Information Retrieval 1/hw3/checkpoint.pt (torch_old, 202043 bytes, 3 tensors)

net.0.weight f4 [100, 501]
00000000: e097 31bc 696f 0a3d 31f1 41bd 3a0a b9bb
00000010: 723c bbbc bb51 a53c 434f 93bc ae47 153b
00000020: 3fbe d23c da19 833b 3be0 7f3d 150e 5bbc
00000030: 20b1 44bd 85cd 7c3c 3f1f fbbc 3ea3 86bc
00000040: 27e4 553d 2f0c f13c 4bda 1cbd ff9e 8cbc
00000050: b51e d9bc 79ae dcbc b939 0f3d 2402 213c
00000060: d20a 9b3b d53a f5bc 01bc a2bc 439d 57bd
00000070: 8d12 41bd 9d85 d1bc b0dd 70bd d821 21bd
00000080: b145 603d 3b25 a2bc 506b b63c a228 1fbd
00000090: 1553 873c 4e30 363c 2640 57bb e54d 3bbc
000000a0: 5fae 2bbc 927e 7a3c 6a53 53bd 8a70 243c
000000b0: 6623 2fbc 109a 53bb 912a 19bc 9b9c 873d
000000c0: b844 33bd 4e2c b5bc 9718 4d3c 1e5f b4bc
000000d0: 06f4 88bc f382 5dbd 0ea1 5abd c72e 833c
000000e0: bebe 1dbd c542 efbc 6225 c43c 3ced 083d
000000f0: 4183 8abc 7c3f cc3c f351 e7ba cc17 a8bb
00000100: f6a1 503c 371e 4ebd 260e b23c 3d79 68bc
00000110: a382 78bb 13d9 a73b 54c5 f53b a551 9cbc
00000120: 7721 09bd 91a3 783c 6f48 4c3d 4c42 3ebd
00000130: e48c 1ebd 65bd 3b3c ee49 36bc 0a9d c3bc
00000140: f83a cf3c 3e24 d6bc 149c 1d3d f2dd 22bd
00000150: ff52 423c 5991 16bd 3036 fbbc a440 093d
00000160: 78a2 df3b 1068 a8bb 2976 843c eb8d 1eb9
00000170: c200 403c 652c a4bc fdb9 1e3c 9f38 793c
00000180: 4855 513b 290c 813c 41a4 8c3b 7c0d 64bb
00000190: 7da9 42bc 309f 5a3b b7b8 0b3d 6a96 d2ba
000001a0: 32cb a5bc 2589 bb3c 970f 043d 2d3b 01bd
000001b0: 9745 dd3c d602 1a3d 0df1 03bd dc18 033d
000001c0: 86c6 b03b 3d61 00bc 1aed 8bbb 3d64 15bd
000001d0: 187b 12bd e2e8 823c d42b 8dbc 7b61 613d
000001e0: 0860 9cbc 1c72 6ebc 1796 c53c f058 3d3b
000001f0: a55a 62bc 2ea5 72bb ec2e 8f3c 457d edbc
00000200: a4d0 d53c 30f0 6d3d 4dd5 8dbc 2069 e0bc
00000210: 77f6 23bd 5e7c 18bd aaa7 983b 3a6f 2dbd
00000220: eb3c 18bd 868b 5cbd 1c82 5f3b b40b cd3b
00000230: 9b40 4b3c 08ea babb 47b5 01bd f851 d7bb
00000240: 26c4 43bd 95e8 1abd a042 53bc 0e26 293c
00000250: 7819 9bbc 4587 303d d6a1 0abd ae37 053d
00000260: 3121 3abb 4e7e 8f3c 157e ff3b a463 3d3b
00000270: 70c8 c1bc adeb 07bd 49f0 663c 3d43 313b
00000280: 12bb aabc 5242 09bd 9260 683c b2fc 083d
00000290: 022e 03bd 66ae b53a 6055 db3b aa8e b53a
000002a0: 275e 3bbd 7c95 153d f9fc 2d3d a1df 433d
000002b0: d74b 5fbc fdc6 48bc d183 11bd a051 95bc
000002c0: c965 c1bc 1468 ddbb c28a ad3b c813 4ebb
000002d0: b8e4 2a3c a58b 0dbd f139 42bd 127f 443d
000002e0: a67b 013d 708e 48bd 1f57 893a bd66 76bc
000002f0: 2efe b8bc 3325 e5bc a5ec 99bc 5d30 debc
00000300: f007 23bd 4e18 11bd 8572 b0bc 27af 46bd
00000310: ff95 e53b e035 c0bb 8383 d6bb 5eab 823c
00000320: e780 3abc 16a2 08bc ed43 553c 0451 b23c
00000330: d62b 0abc 0d8c 3cbd d2fa febc 5d96 bbbc
00000340: 18f4 6b3c 3084 ad3c 4879 1e3d bf10 d8ba
00000350: 5c81 ee3c dd6d ea3c c87a ae3c d9ff bb3c
00000360: 8dd7 c83c 8b37 7bbb 793b 063d cf47 0c3d
00000370: dbbd 2abd 35e7 41bd f509 ee3c d11b 9ebc
00000380: 189f 0fbd d0cc 55bc b555 313c 58b0 8d3c
00000390: 54df 82bc fdc5 3d3c 93bc 003d 204a cd3b
000003a0: 3adb cfbc 2654 8bbc f7ea 2cbd 1dbf 763c
000003b0: bf0c 833c 3d58 4f3d 4ea2 37bc 552e 7e3c
000003c0: 929d 44bc ec14 a63c 61fc da3c 0cea fbbc
000003d0: 8465 3d3d aa99 35bc 9f77 ffbc 305a d7bc
000003e0: 608b 5c3c 9c88 6cbd a532 8cbb 1529 643c
000003f0: 5b59 17bd 10ad b73c cd07 9fbb 838f eabc
-0.0108394325 0.033797655 -0.04734916 -0.005646971 -0.022855971 0.020180574 -0.01798213 0.002277832
0.025725482 0.0040008845 0.062469702 -0.013370057 -0.048020482 0.015429859 -0.030654548 -0.016435262
0.052219536 0.029424755 -0.038294118 -0.017165659 -0.0265039 -0.026938664 0.034967158 0.0098271705
0.0047315145 -0.02993528 -0.019865038 -0.05264021 -0.047136832 -0.025576407 -0.058805168 -0.039338917
0.054753963 -0.019793143 0.022267967 -0.03885711 0.016519109 0.011119915 -0.0032844632 -0.011432146
-0.010478585 0.015288966 -0.05159322 0.010036597 -0.010689592 -0.0032287873 -0.0093485275 0.06621667
-0.043766707 -0.022115853 0.01251807 -0.022018012 -0.016717922 -0.05407996 -0.05337625 0.016013516
-0.038511984 -0.029206643 0.023943607 0.03342937 -0.01690829 0.024932615 -0.0017648324 -0.00512979
0.012733927 -0.050321784 0.021735262 -0.014189062 -0.0037919662 0.005122313 0.00750033 -0.0190819
-0.03347918 0.015175716 0.049873766 -0.046449944 -0.038708583 0.011458729 -0.011126025 -0.023878593
0.025296673 -0.026140328 0.038478926 -0.039762445 0.011860608 -0.036759708 -0.030665487 0.03350891
0.0068247877 -0.0051393583 0.016169624 -0.00015120923 0.011718931 -0.0200407 0.009687898 0.015211253
0.00319417 0.015752869 0.0042920415 -0.0034798076 -0.0118812295 0.0033359043 0.034111705 -0.0016066555
-0.020238493 0.022892544 0.03224143 -0.031550575 0.027010722 0.03760036 -0.032212306 0.03200613
0.0053947596 -0.007835683 -0.004270208 -0.036472548 -0.035761923 0.015980188 -0.017232813 0.055024605
-0.01908876 -0.014553573 0.02411942 0.0028892122 -0.013815557 -0.0037024724 0.017478429 -0.028990397
0.026100464 0.05809039 -0.017313624 -0.027393878 -0.04002997 -0.03722798 0.004658659 -0.042342402
-0.03716747 -0.053843997 0.003410465 0.0062574986 0.01240554 -0.005704168 -0.03166702 -0.0065710507
-0.047794484 -0.037819464 -0.012894303 0.010324014 -0.018933043 0.043097753 -0.033845745 0.032523803
-0.0028401131 0.017516281 0.0077970126 0.0028898502 -0.023655146 -0.033183742 0.014095374 0.0027048134
-0.020841155 -0.033510514 0.01418318 0.033444114 -0.0320263 0.0013861179 0.006693527 0.0013851721
-0.045744088 0.036519513 0.04247758 0.04782069 -0.0136289215 -0.012254474 -0.0355261 -0.018227398
-0.023608105 -0.006756792 0.0052960822 -0.0031444896 0.010430507 -0.034557004 -0.04741854 0.047972746
0.03161206 -0.048963964 0.0010478235 -0.015039143 -0.02258214 -0.02797184 -0.018789599 -0.02712267
-0.03980249 -0.03542357 -0.021538982 -0.048506882 0.0070064063 -0.0058657974 -0.006546439 0.015950855
-0.011383272 -0.008339426 0.013016683 0.021767147 -0.008433303 -0.046032 -0.03112546 -0.022898847
0.014401458 0.021181196 0.03868988 -0.0016484483 0.029114418 0.02861684 0.021298781 0.022949146
0.024516845 -0.0038332667 0.03277156 0.03424817 -0.041684967 -0.047339637 0.029057482 -0.019300373
-0.035063833 -0.013049319 0.010823657 0.017296001 -0.015975632 0.011582849 0.03142984 0.00626494
-0.02537309 -0.017007899 -0.042216267 0.015060213 0.015997289 0.05062126 -0.01120813 0.015513976
-0.012000458 0.020273648 0.026731672 -0.03075125 0.04623939 -0.011084 -0.03118497 -0.026288122
0.013460964 -0.05774747 -0.0042784982 0.01392581 -0.03695045 0.02242139 -0.004853225 -0.028632885

net.0.bias f4 [100]
00000000: 2c13 d3bc 9b14 513d b43a 1d3b b52e f5bb
00000010: 9ae0 1f3d 811c ca3a b922 083d ec51 a8bc
00000020: 9dbe 4e3d e4de 693d 5f26 2bbd 77f3 18bd
00000030: 2d33 a8bc 1220 d0bc 4bda 36bd 3971 f4bc
00000040: 199d 68bb 7bab 843a eea5 45bd 3a54 143d
00000050: ea79 4abc dac7 e4bc f1c7 ce3b 7895 40bd
00000060: f895 b7bb 0c45 3f3d e4f4 473d b186 d83b
00000070: 05c2 4ebc d10a 05bd a06e 293d 01b3 353d
00000080: 21c8 c73c b653 573d 7f8a 3b3b 348e 0a3b
00000090: e108 6bbc d49c a43c 492b 9ebc df6c c8bb
000000a0: 664a 2abd c168 a7bb 98c7 073b b6d6 41bd
000000b0: 190e 333d f627 b03b 970b 00bd 4055 f73c
000000c0: c880 2dbd 86a6 05bd 2d31 eabb 0cdd d8bc
000000d0: c416 8ab8 3a78 cc3c 8134 133d 1d4a 76bc
000000e0: e408 eebb bc0c 983c 77a9 aebc 9e3f 6b3c
000000f0: 260a 67bc 3f51 06bb 6a54 43bd 7ba8 96bc
00000100: 25fe 7b3d d5ac a6bc 7191 843c 1fad 29bd
00000110: 6b64 0e3d eff2 2a3d 5bea 9dbb b236 c9bc
00000120: 91e2 2abc af03 123d bfff e4bc da82 503a
00000130: 994a 1fbb 43bc a73c 7ded 3fbd 393f 5bbc
00000140: 813f 033d c489 93bc 69a4 213d 5cef 15bb
00000150: e59e 0fbd 0881 d1bc fb28 9bbc c3be b03c
00000160: 8b71 683d d37e 663c bf21 543d 1bd2 053d
00000170: 437f 67bc 45c4 69bc 5966 3b3d 037b 46bd
00000180: 116e 613c 79b0 91ba c696 e93b 77f3 7fbd
-0.025765978 0.05104504 0.0023991289 -0.0074823746 0.039032556 0.0015419872 0.03323624 -0.020546876
0.05047475 0.05709733 -0.04178464 -0.03734156 -0.020532215 -0.025405917 -0.044641774 -0.029839145
-0.0035494028 0.0010121906 -0.048253946 0.036213137 -0.012358168 -0.027927328 0.006310456 -0.047017545
-0.0056025945 0.046696708 0.04881753 0.0066078533 -0.0126195 -0.03248102 0.041365266 0.044360165
0.024387421 0.052570067 0.0028616486 0.0021141889 -0.014345379 0.020094313 -0.01930775 -0.006116494
-0.041574858 -0.005108923 0.0020718332 -0.047323905 0.043714616 0.0053758575 -0.031261053 0.030192018
-0.042359143 -0.032629512 -0.0071469755 -0.02647259 -6.584593e-05 0.024959672 0.035938744 -0.015032318
-0.0072642434 0.01856076 -0.021321042 0.014358429 -0.014101541 -0.0020495204 -0.047687925 -0.018390885
0.061521668 -0.020346085 0.016182633 -0.041424867 0.034763735 0.041735586 -0.004819197 -0.024562214
-0.010429994 0.035648044 -0.02795398 0.0007954069 -0.0024305938 0.020475512 -0.046857346 -0.013381773
0.032042984 -0.018010028 0.039463434 -0.0022878265 -0.035063643 -0.025574222 -0.01894044 0.021575337
0.056748908 0.014068323 0.051789995 0.032671075 -0.014129463 -0.014267986 0.045751903 -0.048457157
0.013759152 -0.0011115215 0.0071285693 -0.062488046

net.2.weight f4 [1, 100]
00000000: 60fe e7bc cdc3 86bd ea28 a23d 4533 893d
00000010: fddc c23c 0336 e3bd 9640 afbd d0be e2bd
00000020: 2e57 f13c cb0e a93d 1cc3 84bc a652 92bd
00000030: acce 85bd 2708 f03d 8ea7 aeba 5afe e53d
00000040: b7fe c5bd 0d96 bc3d f8cc 073d b5a8 b13d
00000050: d866 a1bd 761a 933d ad44 cfbd ef30 853d
00000060: b614 21bd f82a be3d 8f43 c53d bc56 eebc
00000070: 9a07 693c 8c39 96bd 155c 2a3d c080 0bbd
00000080: 8f3b 61bd 0a1a e53d c38b 52bd 8e77 6abd
00000090: 6326 12bd 4ed3 093e 7cae 9fbd 2d9a 3c3d
000000a0: 4ad2 2a3d 074c 5bbd 1f38 253d 4d31 82bc
000000b0: 0472 853d 45a8 77bc 4d92 89bd fde6 0ebd
000000c0: 43af abbd b6bc 253e 54ae 0d3e 7d01 913d
000000d0: 1e40 753d 61b7 82bd 5f5c b5bd fd7a 1d3d
000000e0: 65f9 41bd 4568 b3bd 351f 3dbd eb61 c93d
000000f0: 5730 f4bc bff7 663d 6dbe 51bb 1a99 edbc
00000100: 1f87 813d b6c3 113d fc5f 50bd c35d b6bd
00000110: 80f4 8cbd 2034 d0bd a51d bbbd 7c05 19bd
00000120: bd4d d3bd 305c a93d b174 34bd 5922 d7bd
00000130: e928 a13d b8f0 0ebd 84cd 8fbd c10c b73d
00000140: 58d5 f63d 2305 6ebd 9475 23bd 34a6 9b3b
00000150: d218 c1bd ef1c 6c3d 3967 23bd 93ef c73d
00000160: 2ade c9bc c981 af3d 9d56 a0bd 0cc9 9fbd
00000170: e739 293d 2d79 693d 9579 1a3d 427b 16bd
00000180: fb8a 6c3d 382a 7bbd adaf c1bd db7a c23d
-0.028319538 -0.06580315 0.0791796 0.06699232 0.023787016 -0.11094286 -0.08557241 -0.11071551
0.029460516 0.08254775 -0.016206317 -0.0714467 -0.0653356 0.11720305 -0.0013325082 0.11230154
-0.096677236 0.092083074 0.033154458 0.086747564 -0.07880944 0.071827814 -0.10120521 0.06503474
-0.039326392 0.092855394 0.096320264 -0.029094093 0.014223004 -0.07335195 0.041591723 -0.034058332
-0.05498844 0.11186607 -0.05140282 -0.057242922 -0.03568114 0.13459513 -0.07796952 0.04604547
0.041704454 -0.053539302 0.040336724 -0.01589265 0.065158874 -0.015115802 -0.06717358 -0.034888256
-0.08383038 0.16185269 0.13836032 0.07080362 0.0598756 -0.06382633 -0.08855509 0.03844737
-0.04735698 -0.08760122 -0.04617234 0.098331295 -0.029808206 0.056388613 -0.0032004372 -0.029003669
0.063246004 0.035587035 -0.050872788 -0.089046024 -0.06882572 -0.10166192 -0.091365136 -0.037358746
-0.10317562 0.082695365 -0.044056598 -0.10504598 0.07869131 -0.034897536 -0.07021621 0.089379795
0.12052411 -0.058110368 -0.039907053 0.0047500376 -0.09428562 0.05764478 -0.039893363 0.09762492
-0.024642069 0.085696764 -0.0782902 -0.078020185 0.041314986 0.057000328 0.037713606 -0.03673864
0.05774973 -0.06131956 -0.094573356 0.09496089
